…
{\*\expandedcolortbl;;\cssrgb\c83922\c87059\c92157;}
\paperw11900\paperh16840\margl1440\margr1440\vieww11520\viewh8400\viewkind0
\deftab720
\pard\pardeftab720\partightenfactor0

\f0\fs24 \cf2 \expnd0\expndtw0\kerning0
\outl0\strokewidth0 \strokec2 the number of model layers:  101\
Model: "ssd_model"\
__________________________________________________________________________________________________\
Layer (type)                    Output Shape         Param #     Connected to                     \
==================================================================================================\
input_image (InputLayer)        [(None, 256, 320, 3) 0                                            \
__________________________________________________________________________________________________\
conv_pad_1 (ZeroPadding2D)      (None, 258, 322, 3)  0           input_image[0][0]                \
__________________________________________________________________________________________________\
conv_1 (Conv2D)                 (None, 128, 160, 16) 432         conv_pad_1[0][0]                 \
__________________________________________________________________________________________________\
conv_bn_1 (BatchNormalization)  (None, 128, 160, 16) 64          conv_1[0][0]                     \
__________________________________________________________________________________________________\
conv_relu_1 (ReLU)              (None, 128, 160, 16) 0           conv_bn_1[0][0]                  \
__________________________________________________________________________________________________\
conv_2 (Conv2D)                 (None, 128, 160, 32) 4608        conv_relu_1[0][0]                \
__________________________________________________________________________________________________\
conv_bn_2 (BatchNormalization)  (None, 128, 160, 32) 128         conv_2[0][0]                     \
__________________________________________________________________________________________________\
conv_relu_2 (ReLU)              (None, 128, 160, 32) 0           conv_bn_2[0][0]                  \
__________________________________________________________________________________________________\
conv_pad_3 (ZeroPadding2D)      (None, 130, 162, 32) 0           conv_relu_2[0][0]                \
__________________________________________________________________________________________________\
conv_3 (Conv2D)                 (None, 64, 80, 32)   9216        conv_pad_3[0][0]                 \
__________________________________________________________________________________________________\
conv_bn_3 (BatchNormalization)  (None, 64, 80, 32)   128         conv_3[0][0]                     \
__________________________________________________________________________________________________\
conv_relu_3 (ReLU)              (None, 64, 80, 32)   0           conv_bn_3[0][0]                  \
__________________________________________________________________________________________________\
conv_4 (Conv2D)                 (None, 64, 80, 32)   9216        conv_relu_3[0][0]                \
__________________________________________________________________________________________________\
conv_bn_4 (BatchNormalization)  (None, 64, 80, 32)   128         conv_4[0][0]                     \
__________________________________________________________________________________________________\
conv_relu_4 (ReLU)              (None, 64, 80, 32)   0           conv_bn_4[0][0]                  \
__________________________________________________________________________________________________\
conv_pad_5 (ZeroPadding2D)      (None, 66, 82, 32)   0           conv_relu_4[0][0]                \
__________________________________________________________________________________________________\
conv_5 (Conv2D)                 (None, 32, 40, 64)   18432       conv_pad_5[0][0]                 \
__________________________________________________________________________________________________\
conv_bn_5 (BatchNormalization)  (None, 32, 40, 64)   256         conv_5[0][0]                     \
__________________________________________________________________________________________________\
conv_relu_5 (ReLU)              (None, 32, 40, 64)   0           conv_bn_5[0][0]                  \
__________________________________________________________________________________________________\
conv_6 (Conv2D)                 (None, 32, 40, 64)   36864       conv_relu_5[0][0]                \
__________________________________________________________________________________________________\
conv_bn_6 (BatchNormalization)  (None, 32, 40, 64)   256         conv_6[0][0]                     \
__________________________________________________________________________________________________\
conv_relu_6 (ReLU)              (None, 32, 40, 64)   0           conv_bn_6[0][0]                  \
__________________________________________________________________________________________________\
conv_7 (Conv2D)                 (None, 32, 40, 64)   36864       conv_relu_6[0][0]                \
__________________________________________________________________________________________________\
conv_bn_7 (BatchNormalization)  (None, 32, 40, 64)   256         conv_7[0][0]                     \
__________________________________________________________________________________________________\
conv_relu_7 (ReLU)              (None, 32, 40, 64)   0           conv_bn_7[0][0]                  \
__________________________________________________________________________________________________\
conv_8 (Conv2D)                 (None, 32, 40, 64)   36864       conv_relu_7[0][0]                \
__________________________________________________________________________________________________\
conv_bn_8 (BatchNormalization)  (None, 32, 40, 64)   256         conv_8[0][0]                     \
__________________________________________________________________________________________________\
conv_relu_8 (ReLU)              (None, 32, 40, 64)   0           conv_bn_8[0][0]                  \
__________________________________________________________________________________________________\
conv_pad_9 (ZeroPadding2D)      (None, 34, 42, 64)   0           conv_relu_8[0][0]                \
__________________________________________________________________________________________________\
conv_9 (Conv2D)                 (None, 16, 20, 128)  73728       conv_pad_9[0][0]                 \
__________________________________________________________________________________________________\
conv_bn_9 (BatchNormalization)  (None, 16, 20, 128)  512         conv_9[0][0]                     \
__________________________________________________________________________________________________\
conv_relu_9 (ReLU)              (None, 16, 20, 128)  0           conv_bn_9[0][0]                  \
__________________________________________________________________________________________________\
conv_10 (Conv2D)                (None, 16, 20, 128)  147456      conv_relu_9[0][0]                \
__________________________________________________________________________________________________\
conv_bn_10 (BatchNormalization) (None, 16, 20, 128)  512         conv_10[0][0]                    \
__________________________________________________________________________________________________\
conv_relu_10 (ReLU)             (None, 16, 20, 128)  0           conv_bn_10[0][0]                 \
__________________________________________________________________________________________________\
conv_11 (Conv2D)                (None, 16, 20, 128)  147456      conv_relu_10[0][0]               \
__________________________________________________________________________________________________\
conv_bn_11 (BatchNormalization) (None, 16, 20, 128)  512         conv_11[0][0]                    \
__________________________________________________________________________________________________\
conv_relu_11 (ReLU)             (None, 16, 20, 128)  0           conv_bn_11[0][0]                 \
__________________________________________________________________________________________________\
conv_pad_12 (ZeroPadding2D)     (None, 18, 22, 128)  0           conv_relu_11[0][0]               \
__________________________________________________________________________________________________\
conv_dw_12 (DepthwiseConv2D)    (None, 8, 10, 128)   1152        conv_pad_12[0][0]                \
__________________________________________________________________________________________________\
conv_dw_12_bn (BatchNormalizati (None, 8, 10, 128)   512         conv_dw_12[0][0]                 \
__________________________________________________________________________________________________\
conv_dw_12_relu (ReLU)          (None, 8, 10, 128)   0           conv_dw_12_bn[0][0]              \
__________________________________________________________________________________________________\
conv_pw_12 (Conv2D)             (None, 8, 10, 256)   32768       conv_dw_12_relu[0][0]            \
__________________________________________________________________________________________________\
conv_pw_12_bn (BatchNormalizati (None, 8, 10, 256)   1024        conv_pw_12[0][0]                 \
__________________________________________________________________________________________________\
conv_pw_12_relu (ReLU)          (None, 8, 10, 256)   0           conv_pw_12_bn[0][0]              \
__________________________________________________________________________________________________\
conv_dw_13 (DepthwiseConv2D)    (None, 8, 10, 256)   2304        conv_pw_12_relu[0][0]            \
__________________________________________________________________________________________________\
conv_dw_13_bn (BatchNormalizati (None, 8, 10, 256)   1024        conv_dw_13[0][0]                 \
__________________________________________________________________________________________________\
conv_dw_13_relu (ReLU)          (None, 8, 10, 256)   0           conv_dw_13_bn[0][0]              \
__________________________________________________________________________________________________\
conv_pw_13 (Conv2D)             (None, 8, 10, 256)   65536       conv_dw_13_relu[0][0]            \
__________________________________________________________________________________________________\
conv_pw_13_bn (BatchNormalizati (None, 8, 10, 256)   1024        conv_pw_13[0][0]                 \
__________________________________________________________________________________________________\
conv_pw_13_relu (ReLU)          (None, 8, 10, 256)   0           conv_pw_13_bn[0][0]              \
__________________________________________________________________________________________________\
conv_pad_14 (ZeroPadding2D)     (None, 10, 12, 256)  0           conv_pw_13_relu[0][0]            \
__________________________________________________________________________________________________\
conv_dw_14 (DepthwiseConv2D)    (None, 4, 5, 256)    2304        conv_pad_14[0][0]                \
__________________________________________________________________________________________________\
conv_dw_14_bn (BatchNormalizati (None, 4, 5, 256)    1024        conv_dw_14[0][0]                 \
__________________________________________________________________________________________________\
conv_dw_14_relu (ReLU)          (None, 4, 5, 256)    0           conv_dw_14_bn[0][0]              \
__________________________________________________________________________________________________\
conv_pw_14 (Conv2D)             (None, 4, 5, 256)    65536       conv_dw_14_relu[0][0]            \
__________________________________________________________________________________________________\
conv_pw_14_bn (BatchNormalizati (None, 4, 5, 256)    1024        conv_pw_14[0][0]                 \
__________________________________________________________________________________________________\
conv_pw_14_relu (ReLU)          (None, 4, 5, 256)    0           conv_pw_14_bn[0][0]              \
__________________________________________________________________________________________________\
conv2d (Conv2D)                 (None, 32, 40, 16)   9232        conv_relu_8[0][0]                \
__________________________________________________________________________________________________\
conv2d_3 (Conv2D)               (None, 16, 20, 16)   18448       conv_relu_11[0][0]               \
__________________________________________________________________________________________________\
conv2d_6 (Conv2D)               (None, 8, 10, 16)    36880       conv_pw_13_relu[0][0]            \
__________________________________________________________________________________________________\
conv2d_9 (Conv2D)               (None, 4, 5, 16)     36880       conv_pw_14_relu[0][0]            \
__________________________________________________________________________________________________\
leaky_re_lu (LeakyReLU)         (None, 32, 40, 16)   0           conv2d[0][0]                     \
__________________________________________________________________________________________________\
leaky_re_lu_1 (LeakyReLU)       (None, 16, 20, 16)   0           conv2d_3[0][0]                   \
__________________________________________________________________________________________________\
leaky_re_lu_2 (LeakyReLU)       (None, 8, 10, 16)    0           conv2d_6[0][0]                   \
__________________________________________________________________________________________________\
leaky_re_lu_3 (LeakyReLU)       (None, 4, 5, 16)     0           conv2d_9[0][0]                   \
__________________________________________________________________________________________________\
conv2d_1 (Conv2D)               (None, 32, 40, 16)   2320        leaky_re_lu[0][0]                \
__________________________________________________________________________________________________\
conv2d_2 (Conv2D)               (None, 32, 40, 32)   18464       conv_relu_8[0][0]                \
__________________________________________________________________________________________________\
conv2d_4 (Conv2D)               (None, 16, 20, 16)   2320        leaky_re_lu_1[0][0]              \
__________________________________________________________________________________________________\
conv2d_5 (Conv2D)               (None, 16, 20, 32)   36896       conv_relu_11[0][0]               \
__________________________________________________________________________________________________\
conv2d_7 (Conv2D)               (None, 8, 10, 16)    2320        leaky_re_lu_2[0][0]              \
__________________________________________________________________________________________________\
conv2d_8 (Conv2D)               (None, 8, 10, 32)    73760       conv_pw_13_relu[0][0]            \
__________________________________________________________________________________________________\
conv2d_10 (Conv2D)              (None, 4, 5, 16)     2320        leaky_re_lu_3[0][0]              \
__________________________________________________________________________________________________\
conv2d_11 (Conv2D)              (None, 4, 5, 32)     73760       conv_pw_14_relu[0][0]            \
__________________________________________________________________________________________________\
concatenate (Concatenate)       (None, 32, 40, 48)   0           conv2d_1[0][0]                   \
                                                                 conv2d_2[0][0]                   \
__________________________________________________________________________________________________\
concatenate_1 (Concatenate)     (None, 16, 20, 48)   0           conv2d_4[0][0]                   \
                                                                 conv2d_5[0][0]                   \
__________________________________________________________________________________________________\
concatenate_2 (Concatenate)     (None, 8, 10, 48)    0           conv2d_7[0][0]                   \
                                                                 conv2d_8[0][0]                   \
__________________________________________________________________________________________________\
concatenate_3 (Concatenate)     (None, 4, 5, 48)     0           conv2d_10[0][0]                  \
                                                                 conv2d_11[0][0]                  \
__________________________________________________________________________________________________\
re_lu (ReLU)                    (None, 32, 40, 48)   0           concatenate[0][0]                \
__________________________________________________________________________________________________\
re_lu_1 (ReLU)                  (None, 16, 20, 48)   0           concatenate_1[0][0]              \
__________________________________________________________________________________________________\
re_lu_2 (ReLU)                  (None, 8, 10, 48)    0           concatenate_2[0][0]              \
__________________________________________________________________________________________________\
re_lu_3 (ReLU)                  (None, 4, 5, 48)     0           concatenate_3[0][0]              \
__________________________________________________________________________________________________\
conv2d_13 (Conv2D)              (None, 32, 40, 12)   5196        re_lu[0][0]                      \
__________________________________________________________________________________________________\
conv2d_15 (Conv2D)              (None, 16, 20, 8)    3464        re_lu_1[0][0]                    \
__________________________________________________________________________________________________\
conv2d_17 (Conv2D)              (None, 8, 10, 8)     3464        re_lu_2[0][0]                    \
__________________________________________________________________________________________________\
conv2d_19 (Conv2D)              (None, 4, 5, 12)     5196        re_lu_3[0][0]                    \
__________________________________________________________________________________________________\
conv2d_12 (Conv2D)              (None, 32, 40, 6)    2598        re_lu[0][0]                      \
__________________________________________________________________________________________________\
conv2d_14 (Conv2D)              (None, 16, 20, 4)    1732        re_lu_1[0][0]                    \
__________________________________________________________________________________________________\
conv2d_16 (Conv2D)              (None, 8, 10, 4)     1732        re_lu_2[0][0]                    \
__________________________________________________________________________________________________\
conv2d_18 (Conv2D)              (None, 4, 5, 6)      2598        re_lu_3[0][0]                    \
__________________________________________________________________________________________________\
reshape_1 (Reshape)             (None, 3840, 4)      0           conv2d_13[0][0]                  \
__________________________________________________________________________________________________\
reshape_3 (Reshape)             (None, 640, 4)       0           conv2d_15[0][0]                  \
__________________________________________________________________________________________________\
reshape_5 (Reshape)             (None, 160, 4)       0           conv2d_17[0][0]                  \
__________________________________________________________________________________________________\
reshape_7 (Reshape)             (None, 60, 4)        0           conv2d_19[0][0]                  \
__________________________________________________________________________________________________\
reshape (Reshape)               (None, 3840, 2)      0           conv2d_12[0][0]                  \
__________________________________________________________________________________________________\
reshape_2 (Reshape)             (None, 640, 2)       0           conv2d_14[0][0]                  \
__________________________________________________________________________________________________\
reshape_4 (Reshape)             (None, 160, 2)       0           conv2d_16[0][0]                  \
__________________________________________________________________________________________________\
reshape_6 (Reshape)             (None, 60, 2)        0           conv2d_18[0][0]                  \
__________________________________________________________________________________________________\
face_boxes (Concatenate)        (None, 4700, 4)      0           reshape_1[0][0]                  \
                                                                 reshape_3[0][0]                  \
                                                                 reshape_5[0][0]                  \
                                                                 reshape_7[0][0]                  \
__________________________________________________________________________________________________\
face_classes (Concatenate)      (None, 4700, 2)      0           reshape[0][0]                    \
                                                                 reshape_2[0][0]                  \
                                                                 reshape_4[0][0]                  \
                                                                 reshape_6[0][0]                  \
__________________________________________________________________________________________________\
predictions (Concatenate)       (None, 4700, 6)      0           face_boxes[0][0]                 \
                                                                 face_classes[0][0]               \
==================================================================================================\
Total params: 1,038,956\
Trainable params: 1,034,636\
Non-trainable params: 4,320\
_______________________________________________________________________
…
